…
wandb: Run data is saved locally in /home/image_data/chengxinhua/Open-Sora-Plan/wandb/run-20240926_174905-dzi0z953
wandb: Run `wandb offline` to turn off syncing.
wandb: Syncing run sandy-pyramid-28
wandb:  View project at https://wandb.ai/cxh0519/Open-Sora-Plan-opensora_train
wandb:  View run at https://wandb.ai/cxh0519/Open-Sora-Plan-opensora_train/runs/dzi0z953
09/26/2024 17:49:08 - INFO - __main__ - ***** Running training *****
09/26/2024 17:49:08 - INFO - __main__ -   Model = DeepSpeedEngine(
  (module): OpenSoraInpaint_v1_2(
    (caption_projection): PixArtAlphaTextProjection(
      (linear_1): Linear(in_features=4096, out_features=2304, bias=True)
      (act_1): GELU(approximate='tanh')
      (linear_2): Linear(in_features=2304, out_features=2304, bias=True)
    )
    (motion_projection): MotionAdaLayerNormSingle(
      (emb): MotionEmbeddings(
        (motion_proj): Timesteps()
        (motion_embedder): TimestepEmbedding(
          (linear_1): Linear(in_features=256, out_features=2304, bias=True)
          (act): SiLU()
          (linear_2): Linear(in_features=2304, out_features=2304, bias=True)
        )
      )
      (silu): SiLU()
      (linear): Linear(in_features=2304, out_features=13824, bias=True)
    )
    (pos_embed): PatchEmbed2D(
      (proj): Conv2d(8, 2304, kernel_size=(2, 2), stride=(2, 2))
    )
    (transformer_blocks): ModuleList(
      (0-31): 32 x BasicTransformerBlock(
        (norm1): LayerNorm((2304,), eps=1e-06, elementwise_affine=False)
        (attn1): Attention(
          (to_q): Linear(in_features=2304, out_features=2304, bias=True)
          (to_k): Linear(in_features=2304, out_features=2304, bias=True)
          (to_v): Linear(in_features=2304, out_features=2304, bias=True)
          (to_out): ModuleList(
            (0): Linear(in_features=2304, out_features=2304, bias=True)
            (1): Dropout(p=0.0, inplace=False)
          )
        )
        (norm2): LayerNorm((2304,), eps=1e-06, elementwise_affine=False)
        (attn2): Attention(
          (to_q): Linear(in_features=2304, out_features=2304, bias=True)
          (to_k): Linear(in_features=2304, out_features=2304, bias=True)
          (to_v): Linear(in_features=2304, out_features=2304, bias=True)
          (to_out): ModuleList(
            (0): Linear(in_features=2304, out_features=2304, bias=True)
            (1): Dropout(p=0.0, inplace=False)
          )
        )
        (ff): FeedForward(
          (net): ModuleList(
            (0): GELU(
              (proj): Linear(in_features=2304, out_features=9216, bias=True)
            )
            (1): Dropout(p=0.0, inplace=False)
            (2): Linear(in_features=9216, out_features=2304, bias=True)
          )
        )
      )
    )
    (norm_out): LayerNorm((2304,), eps=1e-06, elementwise_affine=False)
    (proj_out): Linear(in_features=2304, out_features=32, bias=True)
    (adaln_single): AdaLayerNormSingle(
      (emb): PixArtAlphaCombinedTimestepSizeEmbeddings(
        (time_proj): Timesteps()
        (timestep_embedder): TimestepEmbedding(
          (linear_1): Linear(in_features=256, out_features=2304, bias=True)
          (act): SiLU()
          (linear_2): Linear(in_features=2304, out_features=2304, bias=True)
        )
      )
      (silu): SiLU()
      (linear): Linear(in_features=2304, out_features=13824, bias=True)
    )
    (pos_embed_masked_hidden_states): ModuleList(
      (0): PatchEmbed2D(
        (proj): Conv2d(8, 2304, kernel_size=(2, 2), stride=(2, 2))
      )
      (1): Linear(in_features=2304, out_features=2304, bias=False)
    )
    (pos_embed_mask): ModuleList(
      (0): PatchEmbed2D(
        (proj): Conv2d(4, 2304, kernel_size=(2, 2), stride=(2, 2))
      )
      (1): Linear(in_features=2304, out_features=2304, bias=False)
    )
  )
)
09/26/2024 17:49:08 - INFO - __main__ -   Num examples = 474899
09/26/2024 17:49:08 - INFO - __main__ -   Num Epochs = 17
09/26/2024 17:49:08 - INFO - __main__ -   Instantaneous batch size per device = 1
09/26/2024 17:49:08 - INFO - __main__ -   Total train batch size (w. parallel, distributed & accumulation) = 8
09/26/2024 17:49:08 - INFO - __main__ -   Gradient Accumulation steps = 1
…
